tflite_convert/tflite_models/cnn_model.tflite (tflite, 176912 bytes, 8 tensors)

StatefulPartitionedCall/cnn/StatefulPartitionedCall/StatefulPartitionedCall/cnn_conv_1/StatefulPartitionedCall/Conv2D/ReadVariableOp f4 [1, 5, 5, 10]
00000000: b9c7 ba3d 0ae4 383d 7b24 8abc ad46 ecbd
00000010: 5f7f 1b3d c55a 7b3e 2931 79be 97b2 4abe
00000020: 9560 91bd 415a 88be b143 433e 3981 adbd
00000030: 472d 753e d3ac bfbe 9e3e b93e 3836 b63e
00000040: 3b78 11bd 4587 93be c5dd cabd b62f 8fbe
00000050: cd37 fc3e e78d 263e 5a3f 4c3e ab12 e5be
00000060: dbbd e43e fcf6 b63e 06cc 2dbd 5b54 bebe
00000070: f5b8 88be f944 f63c 2602 9c3e f592 0f3a
00000080: 83da 92be 9572 29be af4b 1a3f 25e0 01be
00000090: b046 903e 9c8c 8ebe bde2 4bbe b3b4 423e
000000a0: 1f92 fdbb 1ae7 f4bb f00d dfbe f34c f0bd
000000b0: 6dba 003f 98a3 13be 7342 7d3e b979 aabd
000000c0: 4c1d 10be 2b26 003e d734 ab3c e9ad 913d
000000d0: 8c47 52be f217 43be 3b0c c63e a676 6c3e
000000e0: 2111 c7bc 3156 81be ba51 afbd 55a6 37be
000000f0: a3bc c4bd 6115 7c3e a2bf 953e 6a53 48be
00000100: 77f8 bd3e 11c4 ab3e b122 923c 14dd c4be
00000110: d03d e8bd 2799 4ebe bc2a a13e 7ec1 233b
00000120: 2f59 0b3f 42aa 9bbe cf03 bc3e 629c 7e3c
00000130: 05bc bdbd 6657 1bbe 7fb3 e3bd 0edd ae3c
00000140: 01eb c83e 2bbb 0a3e c9c2 d3bc 75dc acbe
00000150: 469a 6f3e 6ad4 41be 8439 4e3e 5b2d ce3d
00000160: 5c7d 55be fb01 8f3e ac55 e23e fe6d 983d
00000170: c242 a0be 21ea 8fbe 9817 a93e 43ba 5ebe
00000180: 5076 933e 5149 a43e bd52 52be 90a0 663e
00000190: d813 3cbe 97cc 2f3d 3170 b3be 54fd db3d
000001a0: d29f d5bd a10b 1a3e a6b4 9dbe 860f 86be
000001b0: 6956 a6bd 6dcd 98be e034 83be e6bb 4a3e
000001c0: f3f4 aabd c981 093e 67c0 debd 1113 d83d
000001d0: 5a51 fabd 63f7 57be 2e5e 5fbe 298c 11be
000001e0: 1f72 32be 2cdb 463b e7c1 023f fecd 393e
000001f0: 4042 18be 768a 2abc 6ca1 1fbe a5be 1d3e
00000200: 6060 9fbe cda6 633c 0b33 c83d c949 1e3d
00000210: fa4c 843e b3d7 fd3d c086 aebe c5ba 8dbe
00000220: c561 633d a4b4 0a3f 0576 36be 8a26 cf3e
00000230: 31d8 cc3e 95fa 19be 97e1 8cbd cacf 64bd
00000240: 828a 89be 9815 1abe b8dc b03e 91fa 4d3e
00000250: 1bdd 98be 0838 bf3d a449 8abe 703e 833e
00000260: 7472 44be be31 f33e 6f8f 96be 1b4a 7e3e
00000270: e677 debd 32df 1ebd ca52 4f3e 799f abbd
00000280: 7447 b0be 95ea 6a3e fba9 23be 2520 a73e
00000290: 7645 d4be 17f5 153d ba20 c2bd ff21 963e
000002a0: ca5a 6bb7 5df1 92bd 26da 66be f137 bbbd
000002b0: 5c50 543e 3df2 763e c449 01bf 3b16 c3bd
000002c0: af84 c43d f706 063f dd8a cdbc 2139 0d3e
000002d0: ab7b 15be ef76 99be ee57 e43d b0f5 8e3e
000002e0: 5c4e cbbe 9415 62be d86c 613e c8ed 4c3e
000002f0: 0ff1 6ebd 9eb0 6d3e ab37 dd3d d67e 55be
00000300: 41a3 2e3d 0283 39bd bce0 adbe d2f1 51be
00000310: 390f c13e 4277 51be 5544 e1bd a5a4 5abd
00000320: 90a5 7bbd d7ca 7c3e 461a 28be 60f1 823e
00000330: ebdc 2fbe 9af9 ae3b b073 d8bc 5ae5 a23d
00000340: fb35 6c3e 2210 f4bd 337c 23be 19ee fa3d
00000350: 715e e2bc 03d9 0c3e bce3 fbbd 12e3 f7bd
00000360: 192b 6f3d 2225 ee3e 4e76 f63d edd9 79bd
00000370: a3c9 abbe 2aef 53be 78e3 133d f263 db3d
00000380: 0ace fbbd 41f9 42bd 2b60 b43a fc49 5e3e
00000390: 9ad0 7c3d 8bba 363e e41c afbe a300 5bbd
000003a0: 9f8a 853d bda4 523e f885 ecbd d124 01be
000003b0: 9d1a 9c3d 02ee c13d 36da 1e3e 936f 5c3e
000003c0: 4c95 11be c4d6 84be a300 163e bf2e 683e
000003d0: 46d4 ce3d 8e4c b8bd 6965 a73e 0180 61be
000003e0: e1d9 a33d 23bd d8bd
0.09120125 0.04513935 -0.016863098 -0.11536918 0.037963267 0.24546345 -0.2433516 -0.19794689
-0.070985 -0.26631358 0.19068791 -0.08471913 0.23943053 -0.37436542 0.36180586 0.3558824
-0.03551505 -0.2881414 -0.099055804 -0.27966088 0.49261323 0.16265069 0.19946042 -0.44740805
0.44676098 0.3573531 -0.0424309 -0.37173733 -0.2670361 0.030062186 0.3047039 0.00054769154
-0.28682336 -0.16547616 0.60271734 -0.1268316 0.2817893 -0.2784165 -0.19910713 0.19014244
-0.0077383663 -0.0074738385 -0.4356532 -0.11733427 0.50284463 -0.14417875 0.2473238 -0.08323998
-0.14073676 0.1251456 0.02089922 0.07113249 -0.20535105 -0.19052103 0.38681206 0.23092136
-0.02430016 -0.2526107 -0.0856051 -0.17934544 -0.09606292 0.2461753 0.29247767 -0.1956307
0.37103626 0.33548024 0.017838808 -0.3844992 -0.11339915 -0.2017561 0.31477916 0.0024987157
0.5443296 -0.30403334 0.36721656 0.015540214 -0.092643775 -0.15170059 -0.111182205 0.021345641
0.39241794 0.13547961 -0.025849717 -0.33761945 0.23398694 -0.18928686 0.20139128 0.100672446
-0.20848602 0.27931198 0.44205987 0.07442854 -0.31300932 -0.28108314 0.33025813 -0.2175074
0.28801203 0.32087186 -0.20539375 0.22522187 -0.18366945 0.04291972 -0.35046533 0.10741678
-0.10430874 0.15043499 -0.30801886 -0.26183718 -0.0812195 -0.29844227 -0.25626278 0.1979824
-0.083475016 0.13428415 -0.108765416 0.10550512 -0.12222548 -0.21090464 -0.2181327 -0.14213623
-0.17426346 0.003034304 0.5107712 0.18144986 -0.14869022 -0.010408988 -0.15588921 0.15404756
-0.31128216 0.013894749 0.09775361 0.038644586 0.25839978 0.12394657 -0.3408718 -0.27681556
0.055513162 0.54181886 -0.17818458 0.4045909 0.4000869 -0.15036996 -0.06878965 -0.055862226
-0.26863486 -0.150473 0.34543395 0.20115115 -0.2985619 0.09336859 -0.27009308 0.25633574
-0.19184285 0.47498888 -0.29406306 0.24832956 -0.108627126 -0.038787074 0.20246425 -0.08380026
-0.34429514 0.22941048 -0.15982811 0.32641712 -0.41459244 0.03661069 -0.09478898 0.29322812
-1.402823e-05 -0.07174943 -0.22544155 -0.09141529 0.2073378 0.24115844 -0.5050318 -0.095257245
0.0959562 0.5235438 -0.02509063 0.13791324 -0.14597957 -0.29973552 0.11149584 0.2792182
-0.3970822 -0.22078544 0.22014177 0.20012581 -0.05833536 0.23211905 0.108016334 -0.20849165
0.04263616 -0.045290954 -0.3396052 -0.20502403 0.37706926 -0.2045565 -0.109993614 -0.053379674
-0.06143719 0.24686752 -0.16416273 0.2557478 -0.17174117 0.0053398134 -0.026422352 0.079539016
0.23067467 -0.119171396 -0.15965347 0.12252445 -0.027632924 0.13754658 -0.12299296 -0.12103857
0.05839071 0.46512705 0.120342836 -0.060998846 -0.33552274 -0.20696703 0.036105603 0.107124224
-0.12295158 -0.04760099 0.001376157 0.2170791 0.061722375 0.17844598 -0.3420173 -0.053467404
0.065205805 0.20570655 -0.1154899 -0.126117 0.076222636 0.094692245 0.15512928 0.21526937
-0.14217108 -0.25945103 0.1464868 0.22674082 0.10099082 -0.08998977 0.32694557 -0.22021486
0.080005415 -0.1058295

StatefulPartitionedCall/cnn/StatefulPartitionedCall/StatefulPartitionedCall/cnn_conv_1/StatefulPartitionedCall/Conv2D_bias f4 [10]
00000000: 7485 5a3d 34b4 bb3d e58b 89bd f592 2a3d
00000010: e960 373e a37a c6bc 39b2 e33d 02be f73d
00000020: 3487 83be 685f 973d
0.053349927 0.091652304 -0.06716136 0.041644055 0.17908062 -0.0242284 0.11117978 0.12096788
-0.2568909 0.07391244

StatefulPartitionedCall/cnn/StatefulPartitionedCall/StatefulPartitionedCall/cnn_conv_2/StatefulPartitionedCall/Conv2D/ReadVariableOp i1 [20, 5, 5, 10] scale=0.003445852 zero_point=0
00000000: 12ea 2ae8 f5fb 0f18 0a03 df05 22fd 0a06
00000010: ebf1 1116 ef1d 00ed 210c 0210 120f 04ec
00000020: f3dc 1ff6 11ef f006 f7fe e20d 0823 ebdd
00000030: f803 faf5 12fb 1bea 0a07 e3ee 08f3 fbfd
00000040: f519 e801 fd1c 12fa e7ea eb04 0de1 03f8
00000050: f3f4 fe04 eefe f5ed 20ed 1be4 01de eb0c
00000060: e60a 0b14 0fe5 efee 0afd 12fc fe27 f600
00000070: 27ec dbf6 ff12 061a 050b e8ee e3f9 f7f5
00000080: 21e4 dced 09e3 e601 09e9 ff0c e6ea f6ef
00000090: 09ff effc 03f2 e613 13f4 f7ef 0f16 e831
000000a0: 0014 1ff1 dd1d f8f0 121d 01ee eaef e208
000000b0: f8f6 24e4 ff01 eeef 01f3 0412 020a 000f
000000c0: 0f0e e2e6 1506 1bed d9fa 12fb f0f0 150c
000000d0: 0918 04f2 0109 fb04 ef0a 0d07 0d0a 00df
000000e0: edea 10f4 0def f3e4 f7f6 e9ea fdfa 001c
000000f0: e711 f515 05fa f306 eb21 f817 0303 f319
0.06202534 -0.07580875 0.14472578 -0.082700446 -0.037904374 -0.01722926 0.05168778 0.082700446
0.03445852 0.010337556 -0.113713115 0.01722926 0.11715897 -0.010337556 0.03445852 0.020675112
-0.07236289 -0.05168778 0.058579486 0.07580875 -0.058579486 0.09992971 0.0 -0.06547119
0.113713115 0.041350223 0.006891704 0.055133633 0.06202534 0.05168778 0.013783408 -0.06891704
-0.044796076 -0.12405068 0.10682142 -0.03445852 0.058579486 -0.058579486 -0.055133633 0.020675112
-0.03101267 -0.006891704 -0.10337556 0.044796076 0.027566817 0.12060482 -0.07236289 -0.12060482
-0.027566817 0.010337556 -0.020675112 -0.037904374 0.06202534 -0.01722926 0.09303801 -0.07580875
0.03445852 0.024120964 -0.09992971 -0.06202534 0.027566817 -0.044796076 -0.01722926 -0.010337556
-0.037904374 0.0861463 -0.082700446 0.003445852 -0.010337556 0.09648386 0.06202534 -0.020675112
-0.0861463 -0.07580875 -0.07236289 0.013783408 0.044796076 -0.10682142 0.010337556 -0.027566817
-0.044796076 -0.041350223 -0.006891704 0.013783408 -0.06202534 -0.006891704 -0.037904374 -0.06547119
0.11026727 -0.06547119 0.09303801 -0.09648386 0.003445852 -0.11715897 -0.07236289 0.041350223
-0.08959215 0.03445852 0.037904374 0.06891704 0.05168778 -0.09303801 -0.058579486 -0.06202534
0.03445852 -0.010337556 0.06202534 -0.013783408 -0.006891704 0.13438824 -0.03445852 0.0
0.13438824 -0.06891704 -0.12749653 -0.03445852 -0.003445852 0.06202534 0.020675112 0.08959215
0.01722926 0.037904374 -0.082700446 -0.06202534 -0.09992971 -0.024120964 -0.03101267 -0.037904374
0.113713115 -0.09648386 -0.12405068 -0.06547119 0.03101267 -0.09992971 -0.08959215 0.003445852
0.03101267 -0.0792546 -0.003445852 0.041350223 -0.08959215 -0.07580875 -0.03445852 -0.058579486
0.03101267 -0.003445852 -0.058579486 -0.013783408 0.010337556 -0.04824193 -0.08959215 0.06547119
0.06547119 -0.041350223 -0.03101267 -0.058579486 0.05168778 0.07580875 -0.082700446 0.16884676
0.0 0.06891704 0.10682142 -0.05168778 -0.12060482 0.09992971 -0.027566817 -0.055133633
0.06202534 0.09992971 0.003445852 -0.06202534 -0.07580875 -0.058579486 -0.10337556 0.027566817
-0.027566817 -0.03445852 0.12405068 -0.09648386 -0.003445852 0.003445852 -0.06202534 -0.058579486
0.003445852 -0.044796076 0.013783408 0.06202534 0.006891704 0.03445852 0.0 0.05168778
0.05168778 0.04824193 -0.10337556 -0.08959215 0.07236289 0.020675112 0.09303801 -0.06547119
-0.13438824 -0.020675112 0.06202534 -0.01722926 -0.055133633 -0.055133633 0.07236289 0.041350223
0.03101267 0.082700446 0.013783408 -0.04824193 0.003445852 0.03101267 -0.01722926 0.013783408
-0.058579486 0.03445852 0.044796076 0.024120964 0.044796076 0.03445852 0.0 -0.113713115
-0.06547119 -0.07580875 0.055133633 -0.041350223 0.044796076 -0.058579486 -0.044796076 -0.09648386
-0.03101267 -0.03445852 -0.0792546 -0.07580875 -0.010337556 -0.020675112 0.0 0.09648386
-0.0861463 0.058579486 -0.037904374 0.07236289 0.01722926 -0.020675112 -0.044796076 0.020675112
-0.07236289 0.113713115 -0.027566817 0.0792546 0.010337556 0.010337556 -0.044796076 0.0861463

StatefulPartitionedCall/cnn/StatefulPartitionedCall/StatefulPartitionedCall/cnn_conv_2/StatefulPartitionedCall/Conv2D_bias f4 [20]
00000000: ba3e 743c 4ff1 3d3b 6e71 2f3c 6f28 453c
00000010: 0b1a 03bc 109b 30bb d115 22bc a657 113b
00000020: b75a e1bb 30d2 a9bc c244 f9bb e13b b4bc
00000030: 9dbc 2fbc 5b58 0fbd 0dd7 3abc 9078 40bc
00000040: 554f a1bc 626f 013c 2db1 8bbb 0a2e 833b
0.014907533 0.0028982942 0.010708196 0.012033566 -0.008001815 -0.0026947893 -0.009892897 0.0022177487
-0.006877269 -0.020730108 -0.0076070735 -0.022001209 -0.010726121 -0.03499637 -0.011403811 -0.011747494
-0.019691149 0.007900091 -0.0042630644 0.004003291

StatefulPartitionedCall/cnn/StatefulPartitionedCall/StatefulPartitionedCall/cnn_dense/StatefulPartitionedCall/MatMul/ReadVariableOp/transpose i1 [500, 320] scale=0.0014321256 zero_point=0
00000000: 00f7 39d4 d03a f0cd cf19 f941 121b 20cc
00000010: 10fd f30a c442 e5ba f3bd 110d f512 0c4b
00000020: 2fe3 31dd c90a 31d4 0aee 1c36 f1f3 35f1
00000030: 10ca d00f 1adb 3a28 00ea e3ea 09ef 29db
00000040: c4db 342b c823 17b4 f8da d825 1afc ea2b
00000050: edfe 08ee f1ef 0cf5 d7f0 bc00 d8d6 0035
00000060: 2316 ffe8 e72e 081c c326 0cdc e4e1 f9de
00000070: 1aeb 1eca f131 f927 c930 16ea 2c11 eb26
00000080: f9c6 cd20 19c9 3702 0f08 fcd2 0c3c 0318
00000090: c81b 2aeb e01c 31f9 22d1 0722 dac4 3416
000000a0: 270d c9da f5d8 ed11 fe31 250f 1801 e3d3
000000b0: 390d c837 17c4 3410 df0d 38f4 f9f6 f02a
000000c0: 1038 cdb4 dbe9 392b c000 1ef5 f51b 1d44
000000d0: 2dfa 2adb 0eda 3138 ba07 2c01 d1dd 3512
000000e0: 03dd 05eb 2ffd d72e 0b2f 0928 cdeb d717
000000f0: dfcb f630 071a 30c5 29de 26f2 0fe1 f12f
0.0 -0.01288913 0.08163116 -0.063013524 -0.06874203 0.08306328 -0.02291401 -0.07303841
-0.07017415 0.03580314 -0.010024879 0.093088165 0.02577826 0.038667392 0.04582802 -0.07447053
0.02291401 -0.004296377 -0.018617632 0.0143212555 -0.08592753 0.094520286 -0.038667392 -0.10024879
-0.018617632 -0.095952414 0.024346136 0.018617632 -0.015753381 0.02577826 0.017185507 0.10740942
0.0673099 -0.04153164 0.07017415 -0.050124396 -0.078766905 0.0143212555 0.07017415 -0.063013524
0.0143212555 -0.02577826 0.040099517 0.077334784 -0.021481883 -0.018617632 0.075902656 -0.021481883
0.02291401 -0.077334784 -0.06874203 0.021481883 0.037235264 -0.052988645 0.08306328 0.057285022
0.0 -0.031506762 -0.04153164 -0.031506762 0.01288913 -0.024346136 0.05871715 -0.052988645
-0.08592753 -0.052988645 0.07447053 0.0615814 -0.08019903 0.050124396 0.032938886 -0.108841546
-0.011457005 -0.054420773 -0.057285022 0.052988645 0.037235264 -0.0057285023 -0.031506762 0.0615814
-0.027210386 -0.0028642511 0.011457005 -0.02577826 -0.021481883 -0.024346136 0.017185507 -0.015753381
-0.05871715 -0.02291401 -0.09738454 0.0 -0.057285022 -0.060149275 0.0 0.075902656
0.050124396 0.031506762 -0.0014321256 -0.034371015 -0.03580314 0.06587777 0.011457005 0.040099517
-0.08735966 0.054420773 0.017185507 -0.05155652 -0.040099517 -0.044395894 -0.010024879 -0.04869227
0.037235264 -0.030074637 0.042963766 -0.077334784 -0.021481883 0.07017415 -0.010024879 0.055852897
-0.078766905 0.06874203 0.031506762 -0.031506762 0.063013524 0.024346136 -0.030074637 0.054420773
-0.010024879 -0.08306328 -0.07303841 0.04582802 0.03580314 -0.078766905 0.078766905 0.0028642511
0.021481883 0.011457005 -0.0057285023 -0.06587777 0.017185507 0.08592753 0.004296377 0.034371015
-0.08019903 0.038667392 0.060149275 -0.030074637 -0.04582802 0.040099517 0.07017415 -0.010024879
0.04869227 -0.0673099 0.010024879 0.04869227 -0.054420773 -0.08592753 0.07447053 0.031506762
0.055852897 0.018617632 -0.078766905 -0.054420773 -0.015753381 -0.057285022 -0.027210386 0.024346136
-0.0028642511 0.07017415 0.052988645 0.021481883 0.034371015 0.0014321256 -0.04153164 -0.06444565
0.08163116 0.018617632 -0.08019903 0.078766905 0.032938886 -0.08592753 0.07447053 0.02291401
-0.047260143 0.018617632 0.08019903 -0.017185507 -0.010024879 -0.0143212555 -0.02291401 0.060149275
0.02291401 0.08019903 -0.07303841 -0.108841546 -0.052988645 -0.032938886 0.08163116 0.0615814
-0.09165604 0.0 0.042963766 -0.015753381 -0.015753381 0.038667392 0.04153164 0.09738454
0.06444565 -0.008592754 0.060149275 -0.052988645 0.020049758 -0.054420773 0.07017415 0.08019903
-0.10024879 0.010024879 0.063013524 0.0014321256 -0.0673099 -0.050124396 0.075902656 0.02577826
0.004296377 -0.050124396 0.0071606277 -0.030074637 0.0673099 -0.004296377 -0.05871715 0.06587777
0.015753381 0.0673099 0.01288913 0.057285022 -0.07303841 -0.030074637 -0.05871715 0.032938886
-0.047260143 -0.075902656 -0.0143212555 0.06874203 0.010024879 0.037235264 0.06874203 -0.08449541
0.05871715 -0.04869227 0.054420773 -0.020049758 0.021481883 -0.044395894 -0.021481883 0.0673099

StatefulPartitionedCall/cnn/StatefulPartitionedCall/StatefulPartitionedCall/cnn_dense/StatefulPartitionedCall/MatMul_bias f4 [500]
00000000: 8a87 f23a a27a 9d39 b524 983c 3a8c fe3a
00000010: 96f3 8bbb 3185 f0bb fb27 91bb bd11 943b
00000020: f21c 31bb 2ffe b5ba 5851 cfbb 7e2a 813b
00000030: f7d2 f5b8 bb33 883b b432 31bb 88a4 ad3b
00000040: cee4 e0bb ee77 16bc f299 7cbc f35d d5b9
00000050: f1a7 4e3b 8a21 04bc e39c 69bb ce39 e73a
00000060: 9b12 5fbb 5b4c 503a 837b 4dbb c248 10bc
00000070: ec5c 59bb 586c 04bc c947 df3b ea58 b339
00000080: 3c28 1e3a 526b 03bc c969 523b 8b38 93bb
00000090: 94ec 84bb c2a5 28bb afcf 9f3b 58fb 453c
000000a0: aacf 7eba 85ce d8ba 5300 4bbb 8d1d ca3a
000000b0: 611a 3939 e6ba e33b a774 c9bb d6d5 713b
000000c0: be7a 143b 493f c4b9 dce8 613c ce63 44bb
000000d0: ed28 43ba 8b12 e3ba 07df 55bb 5ca8 bbba
000000e0: 8721 6aba e7cd 95bb 2f07 41bc d86a 8139
000000f0: 71cd f73b c345 e0bb 05c7 02bc 0856 98bb
00000100: 131f b43a 2b2d 0e3c 0771 0ebb 8f62 383b
00000110: f295 8c3b 75ee e8bb 7d4b 63bb d4fc 9a3b
00000120: 55d7 eeb8 dd16 44bb 6cbc dcba fa02 2e3c
00000130: 1158 a6bb 1c77 0dbc 1b5d 08bb d475 84bb
00000140: ae55 25bc 11dc efba 6f74 ce3b b8c8 d13b
00000150: 6114 04ba 5e12 8bbb 4a4c f0ba de7d bb3b
00000160: 0895 fc39 bea8 08bc 8568 0e3b 001e 623b
00000170: b989 e7ba da8d 2a3c 794e dcba 1118 7ab9
00000180: e66a 5e3b 6540 e0ba 041c c8b9 0c99 a03b
00000190: 53b3 283b 6281 3fbb 7076 03bc 1937 17bb
000001a0: 59f1 efbb 4ef6 7dbb 089e c8bb 07c8 23bb
000001b0: 3618 a23b bae0 d7bb acc8 bb3a 5f68 40bc
000001c0: 1b41 c7ba 2bc2 613b 9898 c0ba fb98 f03a
000001d0: dad7 f13b ade3 523a 2703 b63a a958 1c3b
000001e0: 4f6b 323a 3084 6bb9 c1d9 93ba 443b 51bb
000001f0: 1f77 a3ba 035f cabb aa88 7eba a0ce 103b
00000200: 31b7 08bb 356e 743b de32 beb9 5581 5bbb
00000210: 80c5 d1b9 aece a8ba 6de4 ee3a abb2 d03b
00000220: b9e8 87bb 5b7a d73a 251a 6c3c 3455 7f3b
00000230: 6314 113c 0754 c93b faba f0ba df1e a63b
00000240: 1cf9 c639 e794 7f3b b478 323c 4ee6 303b
00000250: 52df 203b d624 2ebc bc9a bbb8 ab60 113c
00000260: 9970 33bc 763d 9fbb 9da3 beba 4f15 84bb
00000270: b3e9 82bb fda9 d03a 4b7f 353a 86aa 9fba
00000280: 3018 e8ba b7a3 06ba ea22 e93a 658f e43a
00000290: ce19 a7ba b734 3bba ae7c 08bc fb13 ccbb
000002a0: cb23 2ab8 8e80 e5bb 5679 eaba 3e14 9f3a
000002b0: 6bbf 553c c996 91b9 09ff 0b3b e117 57ba
000002c0: e008 bd36 e98b b4bb ef66 343b ac71 49bb
000002d0: 7e74 3a3b ef06 e4bb 2b7d 13bb 7cf9 18bc
000002e0: b8ab 88bb 2ba5 74bc 2b4c b03a e7a1 c63b
000002f0: dffb 593c 321e 4f3c cf20 a43b 2b2d ce3b
00000300: 2fbb 453b 07d8 5e3b 46dd b4bb b5b0 c8bb
00000310: 9e0e fcbb 3894 6b3a 6c5e 6c3b dfd3 f73a
00000320: df39 cd3a c2c4 ca3b 2dc0 f13b 9716 18ba
00000330: 6a0f 133c a054 b93b f509 a1ba 47dd e1ba
00000340: b38b 0ebb 60ce fd3b fa00 553b 42e4 cebb
00000350: 7e74 e8bb 4fd5 11bb 2853 f1ba b3de 08bb
00000360: 2629 d7ba 428d 05bb a485 b63b 66f6 2b3c
00000370: 21f0 febb cf65 a13a fd01 1b3b bdda a9bb
00000380: 17e3 7c39 8ccb 87bb 8640 8539 8e38 083b
00000390: a083 f4bb 742e 463b 14d3 bab9 bd14 ac3b
000003a0: 92eb 3b3a b16e a1bb b9b4 ecbb 5266 e93b
000003b0: 824c 8f3a b476 733b bccc 5a3c 0c16 aabb
000003c0: b3d3 dfbb 9768 abba a1d1 97bb cb2b b6b9
000003d0: ff67 063b 6523 023c 5c49 90bb 958c b13b
000003e0: 2e3c 3d3c 90b1 3db9 6037 ba3a 7fd3 1c3c
000003f0: 65aa 02bb a1be a1ba d856 73bb 62c8 e63a
0.0018503529 0.00030036742 0.01857219 0.0019420453 -0.004270981 -0.0073400964 -0.004429815 0.004518716
-0.002702531 -0.0013884957 -0.0063268356 0.003941833 -0.00011721806 0.0041565574 -0.0027038278 0.0052991547
-0.006863213 -0.009183867 -0.015417563 -0.00040696524 0.0031533206 -0.008064637 -0.003564649 0.0017641129
-0.003403819 0.0007945948 -0.0031354136 -0.008806409 -0.0033166958 -0.008082472 0.0068139774 0.00034207787
0.0006033217 -0.008021193 0.003210651 -0.0044928244 -0.0040565226 -0.0025733565 0.0048770527 0.012083851
-0.00097202754 -0.001654104 -0.0030975535 0.0015420184 0.00017652802 0.0069497703 -0.0061479392 0.0036901138
0.0022656168 -0.00037431184 0.013788428 -0.0029966715 -0.0007444758 -0.0017324252 -0.0032634155 -0.0014317143
-0.00089313876 -0.0045716646 -0.011781498 0.00024684402 0.0075623323 -0.0068442537 -0.00798202 -0.0046489276
0.0013742171 0.008677761 -0.002173485 0.0028134917 0.004290336 -0.0071085044 -0.0034682446 0.0047298465
-0.00011388833 -0.0029920854 -0.0016840822 0.010620827 -0.0050764163 -0.008634355 -0.0020807448 -0.0040423665
-0.010091228 -0.0018299838 0.006300501 0.0064021014 -0.0005038437 -0.004244133 -0.0018333283 0.0057217916
0.00048176222 -0.0083410125 0.002172978 0.0034502745 -0.0017664946 0.010409797 -0.0016808055 -0.00023850823
0.0033938228 -0.0017109035 -0.00038167846 0.004901057 0.0025741651 -0.0029221405 -0.008023843 -0.0023073612
-0.007322472 -0.0038751545 -0.0061223544 -0.0024991052 0.004946734 -0.006588069 0.0014326773 -0.011743634
-0.0015201898 0.0034448009 -0.0014693914 0.0018356139 0.007380468 0.00080447906 0.0013886438 0.0023856557
0.00068061514 -0.0002246059 -0.0011280106 -0.0031926194 -0.0012471414 -0.006175877 -0.00097096956 0.0022095814
-0.0020861144 0.0037297134 -0.00036277523 -0.0033493836 -0.00040010735 -0.0012878978 0.0018226035 0.006368955
-0.0041476157 0.0016439663 0.01441053 0.0038960697 0.008854958 0.00614405 -0.001836627 0.005069598
0.00037951104 0.0038998665 0.010893036 0.002699274 0.0024547172 -0.0106289 -8.9456764e-05 0.008873145
-0.010952138 -0.0048596216 -0.001454461 -0.0040308605 -0.0039951443 0.0015919801 0.000692357 -0.0012181557
-0.0017707404 -0.000513609 0.0017786894 0.0017437754 -0.0012748779 -0.0007141339 -0.008330507 -0.006227968
-4.0564493e-05 -0.0070038503 -0.0017888944 0.001213677 0.013046126 -0.000277689 0.002136173 -0.00082051574
5.633672e-06 -0.0055098427 0.0027527174 -0.003073792 0.0028450782 -0.0069588344 -0.0022505026 -0.009336825
-0.004170861 -0.014931957 0.0013450434 0.0060617807 0.01330468 0.0126414765 0.005008794 0.0062920055
0.0030171385 0.0034003274 -0.005519542 -0.0061245807 -0.007692172 0.0008986625 0.0036067022 0.0018907747
0.0015657506 0.006188006 0.0073776455 -0.0005801706 0.008975843 0.00565584 -0.0012286293 -0.0017232083
-0.0021750748 0.007745549 0.0032501803 -0.0063138315 -0.007093965 -0.0022252386 -0.0018411623 -0.0020884692
-0.0016415461 -0.0020378386 0.0055701304 0.010495758 -0.0077800904 0.0012313667 0.0023652308 -0.0051835463
0.0002411719 -0.0041441377 0.0002541581 0.0020785662 -0.00746198 0.003024009 -0.0003563395 0.0052514956
0.00071685866 -0.0049265255 -0.0072236923 0.0071227932 0.0010932835 0.003714961 0.013354477 -0.0051906165
-0.0068306564 -0.0013077435 -0.004633144 -0.00034746373 0.0020508764 0.007943009 -0.0044032764 0.00541837
0.0115499925 -0.00018090592 0.0014207177 0.009571909 -0.001993799 -0.0012340137 -0.003713062 0.0017607326

StatefulPartitionedCall/cnn/StatefulPartitionedCall/StatefulPartitionedCall/dense/StatefulPartitionedCall/MatMul/ReadVariableOp/transpose i1 [10, 500] scale=0.002218227 zero_point=0
00000000: e3d1 0919 c4f9 2bd5 1cf2 d7e6 f62f fbe6
00000010: 12ee 2202 20f1 020e e9e8 3522 eec8 cc4d
00000020: dd0e 033d 0e32 2628 0ad1 2d0d ffca cfe0
00000030: c430 2cdc 2efd d127 1744 f922 18ee ca2d
00000040: e12c f24f fbde 1a18 ff08 f3ec 11ea 12ec
00000050: d82f 44e1 e804 e8ce fced fee3 b1c5 0206
00000060: ee31 120e de22 c5d8 e81f c3e2 4722 fcea
00000070: f3da e112 1626 d61b 0bfa 0beb 31eb f9db
00000080: 0305 20d6 101c 05c2 f5cd 13d9 2dd2 fd3b
00000090: 03eb 5000 0eef 25a0 d90f 2a10 0dc9 ec0e
000000a0: d325 e415 e500 02d3 22db d515 0824 e711
000000b0: 2a58 12f6 221a 1419 e035 25c5 4f18 f031
000000c0: c5ed dd2b f028 fd27 2dd8 4def 2126 2fec
000000d0: c732 eafb 2819 2c46 e815 d40a df2b f832
000000e0: dccc 172a d117 174e 2244 0f23 df35 1cc9
000000f0: d92c 2503 db29 21e5 2600 d5cf d7e4 feff
-0.06432858 -0.10425667 0.019964043 0.055455673 -0.13309361 -0.015527588 0.095383756 -0.095383756
0.062110353 -0.031055177 -0.0909473 -0.0576739 -0.022182269 0.10425667 -0.0110911345 -0.0576739
0.039928086 -0.039928086 0.07541972 0.004436454 0.07098326 -0.033273403 0.004436454 0.031055177
-0.051019218 -0.053237446 0.11756603 0.07541972 -0.039928086 -0.12422071 -0.1153478 0.17080347
-0.07763794 0.031055177 0.0066546807 0.13531184 0.031055177 0.11091135 0.08429262 0.088729076
0.022182269 -0.10425667 0.09982021 0.02883695 -0.002218227 -0.11978425 -0.108693115 -0.07098326
-0.13309361 0.10647489 0.09760198 -0.07985617 0.102038436 -0.0066546807 -0.10425667 0.08651085
0.051019218 0.15083943 -0.015527588 0.07541972 0.053237446 -0.039928086 -0.11978425 0.09982021
-0.06876504 0.09760198 -0.031055177 0.17523992 -0.0110911345 -0.07541972 0.0576739 0.053237446
-0.002218227 0.017745815 -0.02883695 -0.044364538 0.03770986 -0.04880099 0.039928086 -0.044364538
-0.088729076 0.10425667 0.15083943 -0.06876504 -0.053237446 0.008872908 -0.053237446 -0.11091135
-0.008872908 -0.04214631 -0.004436454 -0.06432858 -0.17523992 -0.1308754 0.004436454 0.013309361
-0.039928086 0.108693115 0.039928086 0.031055177 -0.07541972 0.07541972 -0.1308754 -0.088729076
-0.053237446 0.06876504 -0.13531184 -0.066546805 0.15749411 0.07541972 -0.008872908 -0.04880099
-0.02883695 -0.08429262 -0.06876504 0.039928086 0.04880099 0.08429262 -0.09316553 0.059892125
0.024400495 -0.013309361 0.024400495 -0.046582766 0.108693115 -0.046582766 -0.015527588 -0.0820744
0.0066546807 0.0110911345 0.07098326 -0.09316553 0.03549163 0.062110353 0.0110911345 -0.13753007
-0.024400495 -0.11312957 0.04214631 -0.08651085 0.09982021 -0.102038436 -0.0066546807 0.1308754
0.0066546807 -0.046582766 0.17745815 0.0 0.031055177 -0.03770986 0.0820744 -0.21294978
-0.08651085 0.033273403 0.09316553 0.03549163 0.02883695 -0.12200248 -0.044364538 0.031055177
-0.09982021 0.0820744 -0.062110353 0.046582766 -0.059892125 0.0 0.004436454 -0.09982021
0.07541972 -0.0820744 -0.095383756 0.046582766 0.017745815 0.07985617 -0.055455673 0.03770986
0.09316553 0.19520396 0.039928086 -0.022182269 0.07541972 0.0576739 0.044364538 0.055455673
-0.07098326 0.11756603 0.0820744 -0.1308754 0.17523992 0.053237446 -0.03549163 0.108693115
-0.1308754 -0.04214631 -0.07763794 0.095383756 -0.03549163 0.088729076 -0.0066546807 0.08651085
0.09982021 -0.088729076 0.17080347 -0.03770986 0.073201485 0.08429262 0.10425667 -0.044364538
-0.12643893 0.11091135 -0.04880099 -0.0110911345 0.088729076 0.055455673 0.09760198 0.15527588
-0.053237446 0.046582766 -0.09760198 0.022182269 -0.073201485 0.095383756 -0.017745815 0.11091135
-0.07985617 -0.1153478 0.051019218 0.09316553 -0.10425667 0.051019218 0.051019218 0.1730217
0.07541972 0.15083943 0.033273403 0.07763794 -0.073201485 0.11756603 0.062110353 -0.12200248
-0.08651085 0.09760198 0.0820744 0.0066546807 -0.0820744 0.0909473 0.073201485 -0.059892125
0.08429262 0.0 -0.095383756 -0.108693115 -0.0909473 -0.062110353 -0.004436454 -0.002218227

StatefulPartitionedCall/cnn/StatefulPartitionedCall/StatefulPartitionedCall/dense/StatefulPartitionedCall/MatMul_bias f4 [10]
00000000: 9d7a db3c e01e 503d 3786 32bd 95c1 82bc
00000010: 60f7 e3bb 31b6 40bd 1aea 9fbc 2455 86ba
00000020: 7b1c 5f3d d186 043b
0.026791865 0.050810695 -0.04358503 -0.015961448 -0.0069569796 -0.04704875 -0.019520808 -0.0010248763
0.05447052 0.0020221958
